Forecasting-Battery-Capacity-for-Second-Life-Applications-Using-PI-RNN-main/saved_models/b3_scenario3.pth (torch, 14970 bytes, 5 tensors)

rnn_cell.W_ih.weight f4 [50, 8]
-0.09030174 0.263603 -0.2343324 0.15451188 0.19283967 -0.034039058 0.040511448 -0.2822227
-0.16997622 -0.29577503 0.211223 -0.12653033 0.21935734 0.2737492 0.14723119 -0.0004002573
0.23883133 -0.28970048 0.11818167 -0.35375604 -0.23064609 -0.24267425 0.20229508 0.24111494
-0.014908094 -0.396433 -0.06471367 -0.32051852 -0.2859255 0.37287995 -0.062070347 0.21892895
-0.31521308 0.065840274 -0.018798988 -0.28869492 0.052682202 -0.2368282 0.21479827 0.0013810896
0.06218817 -0.10420387 0.34098324 0.253368 -0.00013646852 -0.2524062 -0.30265528 0.3203813
-0.13830134 -0.1771292 -0.26093212 0.20788094 -0.11355031 -0.22569525 0.19967388 0.012546778
0.03462086 -0.04443467 -0.24534559 0.058782205 -0.36241162 0.10449603 0.17931361 0.20304827
0.1704291 -0.098715015 0.1782281 0.1658171 -0.05715949 -0.013494234 -0.25898632 0.016832246
-0.020309445 0.24324098 0.3465597 -0.3470572 -0.20805748 -0.04021204 -0.023898646 0.22839898
-0.10175903 -0.19548771 0.032091394 -0.017894598 -0.13142607 0.1602122 0.24327037 -0.15472431
0.3425839 -0.30209193 -0.114816606 0.1995579 0.3595117 -0.26107028 -0.21298575 -0.17145313
0.056588996 -0.088821374 0.29721424 -0.10480484 0.033899207 0.10112661 0.3488004 -0.24599855
0.017629063 -0.29759625 0.09590502 -0.12060394 0.12591448 -0.16886899 0.21839601 0.2765423
-0.3889998 -0.23658861 -0.22085932 0.3210038 0.041302703 0.233242 0.22509952 -0.29064426
0.24854092 0.30490535 0.061732825 -0.2476447 -0.3256673 -0.30723432 0.3979165 -0.24170944
-0.040887535 0.022386147 0.13614519 0.015042743 0.20807749 -0.17274413 0.06849372 0.08228471
0.30993444 0.041755047 -0.113630794 0.17327653 0.23759569 0.21862496 -0.23053364 -0.17619498
0.14579189 -0.2117931 -0.16393791 0.3228515 -0.12365416 0.17396387 -0.16883601 0.008437
0.23384814 -0.334537 -0.25346014 0.10692972 -0.24718145 0.3550021 0.25292736 -0.2993736
-0.17802925 0.10480955 0.2302415 -0.061028354 0.082468115 -0.24010082 0.27870175 0.21615295
0.26039347 -0.2089493 0.05929684 -0.23578306 -0.25145465 -0.21050622 0.10916892 -0.11917365
-0.19046077 -0.07306216 0.23943526 -0.04234854 -0.20758618 0.2434559 -0.30595082 -0.12375471
-0.09646664 -0.1865163 0.25269642 -0.31937778 -0.2529337 0.10030681 0.12285352 -0.13374028
-0.06998868 -0.17454313 0.115035325 0.13043188 -0.34466797 -0.33488378 -0.26357594 0.3083016
0.24149095 0.20614187 -0.22322133 -0.36346287 -0.07430798 -0.15459076 0.23523124 0.2848417
-0.30662915 -0.26765677 -0.2884468 0.15153906 -0.020058839 0.05926349 0.04307041 0.25342563
-0.27212843 0.05573519 0.26026377 0.055974346 -0.08593521 0.27778435 -0.13437401 -0.15413839
-0.24408884 -0.24230753 0.17500389 -0.052578397 -0.110255145 -0.20299618 -0.22097556 -0.16418971
0.30181813 -0.31818616 0.083090924 0.08736444 -0.08020045 -0.01263723 -0.25735497 -0.0049031232
0.10954274 0.14622957 -0.021741837 0.18380865 -0.608818 0.12355957 -0.014952536 -0.17017671
0.06464731 -0.16464646 -0.123464756 0.15199125 0.33587575 -0.056711372 0.3046106 0.12628374
00000000: 1ef0 b8bd f9f6 863e d5f4 6fbe 5d38 1e3e
00000010: c377 453e 8a6c 0bbd 55ef 253d 7e7f 90be
00000020: 3f0e 2ebe d36f 97be d84a 583e 2b91 01be
00000030: 369f 603e db28 8c3e c6c3 163e a0d9 d1b9
00000040: 3390 743e 9f53 94be 3b09 f23d 831f b5be
00000050: 7d2e 6cbe 997f 78be 7126 4f3e d6e6 763e
00000060: 1441 74bc 44f9 cabe 9a88 84bd 011b a4be
00000070: d464 92be 1fea be3e 7a3d 7ebd e92e 603e
00000080: 9c63 a1be 44d7 863d 5600 9abc d2cf 93be
00000090: 4bc9 573d 1783 72be 14f4 5b3e ad05 b53a
000000a0: 06b9 7e3d d768 d5bd 5b95 ae3e 73b9 813e
000000b0: fd18 0fb9 633b 81be a2f5 9abe 0509 a43e
000000c0: de9e 0dbe 5b61 35be e598 85be bede 543e
000000d0: 118d e8bd a81c 67be 4f77 4c3e 0091 4d3c
000000e0: 9ace 0d3d 2101 36bd e03b 7bbe 9cc5 703d
000000f0: 048e b9be 0402 d63d fd9d 373e e3eb 4f3e
00000100: f784 2e3e 192b cabd 6d81 363e f5cb 293e
00000110: 1220 6abd eb16 5dbc db99 84be c7e3 893c
00000120: fe5f a6bc 2a14 793e 4670 b13e 7bb1 b1be
00000130: 050d 55be 61b5 24bd 18c7 c3bc 6ce1 693e
00000140: 0a67 d0bd ee2d 48be 4472 033d b197 92bc
00000150: 8e94 06be ab0e 243e de1b 793e 0d70 1ebe
00000160: 2867 af3e cbab 9abe f824 ebbd e858 4c3e
00000170: eb11 b83e 01ab 85be f018 5abe 6991 2fbe
00000180: ddc9 673d fbe7 b5bd 772c 983e eca3 d6bd
00000190: e5d9 0a3d 781b cf3d f795 b23e 0be7 7bbe
000001a0: d36a 903c 895e 98be da69 c43d 33ff f6bd
000001b0: baef 003e feeb 2cbe 34a3 5f3e f496 8d3e
000001c0: fb2a c7be 4944 72be f228 62be 9c5a a43e
000001d0: 062d 293d fed6 6e3e 7d80 663e 53cf 94be
000001e0: 8381 7e3e 8e1c 9c3e 8fdb 7c3d 9296 7dbe
000001f0: ddbd a6be d14d 9dbe b6bb cb3e ae82 77be
00000200: b079 27bd 2763 b73c a569 0b3e d675 763c
00000210: 4412 553e d6e3 30be 6f46 8c3d e384 a83d
00000220: baaf 9e3e 5707 2b3d 43b7 e8bd 676f 313e
00000230: 494c 733e 39df 5f3e 0311 6cbe 756c 34be
00000240: 784a 153e 4ae0 58be 57df 27be cb4c a53e
00000250: 643e fdbd 9623 323e 59e3 2cbe 583b 0a3c
00000260: e375 6f3e 6f48 abbe 87c5 81be f8fd da3d
00000270: 221d 7dbe d6c2 b53e b27f 813e 7f47 99be
00000280: 4d4d 36be 64a6 d63d 6ec4 6b3e def8 79bd
00000290: 0be5 a83d fddc 75be ffb1 8e3e 3357 5d3e
000002a0: 4b52 853e cef6 55be 3ee1 723d 1d71 71be
000002b0: aabe 80be f18e 57be f493 df3d 5111 f4bd
000002c0: 2608 43be 9da1 95bd 842e 753e aa75 2dbd
000002d0: 7991 54be 814c 793e 96a5 9cbe 1c73 fdbd
000002e0: 4d90 c5bd 21fe 3ebe 6d61 813e 7c85 a3be
000002f0: 8780 81be a86d cd3d a09a fb3d 36f3 08be
00000300: 3a56 8fbd 6fbb 32be a497 eb3d ef8f 053e
00000310: 5278 b0be e375 abbe 6df3 86be b5d9 9d3e
00000320: 6749 773e db16 533e 2294 64be ce17 babe
00000330: c82e 98bd 0a4d 1ebe 75e0 703e c5d6 913e
00000340: 7ffe 9cbe 4f0a 89be 4daf 93be 0e2d 1b3e
00000350: 6f52 a4bc 46be 723d 996a 303d 01c1 813e
00000360: 6b54 8bbe 954a 643d 4b41 853e 5b45 653d
00000370: cdfe afbd c039 8e3e 5799 09be 74d6 1dbe
00000380: 6df2 79be 771f 78be 3834 333e 725c 57bd
00000390: 73cd e1bd 3bde 4fbe 6b47 62be 5921 28be
000003a0: e887 9a3e 4ce9 a2be 932b aa3d 21ec b23d
000003b0: 2240 a4bd 620c 4fbc 08c4 83be 61aa a0bb
000003c0: f257 e03d 34bd 153e f01b b2bc 5638 3c3e
000003d0: 7fdb 1bbf cd0c fd3d 7bfb 74bc ce42 2ebe
000003e0: cf65 843d 1599 28be 17db fcbd 98a3 1b3e
000003f0: e8f7 ab3e 2f4a 68bd ecf5 9b3e 8650 013e

rnn_cell.W_ih.bias f4 [50]
-0.028070863 -0.291342 -0.1420375 -0.161126 -0.29245362 0.29642215 0.19329545 -0.12680367
0.24083734 -0.050842606 0.007334317 0.313855 -0.25816733 -0.08522196 0.17653881 0.024562579
-0.19400302 -0.040243264 -0.29196966 -0.34759802 -0.2345022 0.26461926 0.0053697643 0.028990755
-0.32030758 0.26187164 0.22958718 0.29084483 0.22435005 -0.23129843 0.28988248 -0.0015754498
-0.09786819 0.3382082 -0.15620992 -0.17720532 -0.016063731 0.18355513 -0.31314296 -0.023976777
0.073576845 0.310326 -0.16598104 0.25145063 0.27625853 -0.24717999 0.3419327 -0.26260123
0.12985209 0.1075655
00000000: def4 e5bc c72a 95be 4772 11be 37fe 24be
00000010: 7bbc 95be a5c4 973e 3eef 453e d2d8 01be
00000020: 109e 763e 5640 50bd b654 f03b 9ab1 a03e
00000030: 822e 84be da88 aebd 97c6 343e 7637 c93c
00000040: baa8 46be 1fd6 24bd 0c7d 95be 5ef8 b1be
00000050: 5821 70be 2d7c 873e d9f4 af3b 057e ed3c
00000060: 5bff a3be 0a14 863e e718 6b3e 9de9 943e
00000070: 05bc 653e 7fd9 6cbe 7a6b 943e 537f ceba
00000080: 1e6f c8bd a029 ad3e 7ef5 1fbe 5075 35be
00000090: 1698 83bc e0f5 3b3e 4654 a0be f26a c4bc
000000a0: 75af 963d 0de3 9e3e eff6 29be 23be 803e
000000b0: c271 8d3e c01c 7dbe ce11 af3e ab73 86be
000000c0: f2f7 043e 4d4b dc3d

rnn_cell.W_hh.weight f4 [50, 50]
-0.0040905303 0.039398737 -0.054795437 0.15552916 -0.10881796 -0.042310826 -0.023272185 -0.09959948
0.083145976 0.04672949 -0.0024617196 -0.051473435 0.014587176 -0.09337036 -0.12488867 -0.13335471
-0.043966368 -0.032263257 0.0641164 0.11781393 0.01682472 0.00034018708 0.06701116 0.096606635
0.13164482 0.028261287 -0.009506772 -0.014606922 0.013977731 -0.05585275 -0.108197905 -0.12029034
0.020124573 0.08487924 0.049098536 -0.09184563 0.13058273 -0.044028234 -0.080690704 0.08608918
0.0042174626 -0.11857162 -0.025466649 0.041950904 -0.04497868 -0.06974504 -0.08306238 0.14574267
0.11127322 0.10850749 0.05528807 0.078778 0.070614666 0.050297335 -0.019931143 0.013541607
-0.03818046 -0.056543205 0.0055988054 0.012699895 -0.132023 -0.012109307 -0.16061978 -0.07877535
0.081549615 -0.0023169457 0.11184491 0.094173364 0.050201226 0.06046706 -0.108728014 0.12684813
-0.050354186 0.1315841 0.10481827 -0.14771774 -0.12316704 -0.043709394 -0.048877783 -0.11865477
0.06810808 0.017013842 -0.06101906 -0.05236088 0.052931417 0.012955737 0.12844935 0.0007722265
-0.09792531 0.013357753 -0.025162367 0.106634654 0.05049082 0.056301977 0.14056408 0.080472015
-0.026974244 -0.06889341 0.15114698 -0.08355382 -0.08907542 0.05034634 -0.010320988 0.07237683
0.105199285 -0.14433752 0.07116632 -0.10188149 -0.03157715 0.011029193 0.13131358 -0.056082908
-0.05533309 0.08348731 0.07662118 0.058404937 0.11957701 -0.10612065 -0.030864108 0.11737452
-0.116075195 0.1525521 0.15434909 0.012814414 0.10768054 0.07463585 0.0692492 0.10737637
0.13186878 -0.0057972125 0.06106198 0.09507033 -0.03248184 0.004469237 -0.13063355 0.15317194
-0.033478808 -0.04405223 0.071338415 0.08167144 0.059943754 -0.06223792 -0.023493242 0.119374886
0.09122001 -0.15533699 -0.024923632 0.086657 -0.05993352 0.046569526 -0.054924138 -0.057361726
0.048998695 0.117691435 -0.016982896 0.034873433 -0.23550756 -0.12364009 0.019999087 -0.008208951
0.064556636 0.12291662 0.1333604 -0.10032187 -0.24890438 0.0920076 -0.1020591 -0.032716222
0.015179211 -0.0708506 -0.028838705 -0.08148146 -0.07358198 -0.0771567 0.046809077 -0.04198119
-0.056853577 0.07786825 -0.02587158 -0.059372485 0.11386715 -0.046832133 -0.11524747 -0.08159132
-0.09919455 0.08559374 -0.027827118 0.055631068 -0.037705746 0.1471955 -0.090981595 0.039858725
-0.11487855 0.12056313 -0.04650624 0.030480737 0.11496964 0.08687098 0.019384159 -0.047626805
0.14282466 0.109156124 0.15718846 -0.11551265 0.12579627 -0.04752427 0.08598545 -0.16594186
0.07186521 -0.02400711 0.11919027 -0.039714724 -0.10263489 -0.14395218 0.055238128 -0.13737771
0.060460884 -0.14690563 -0.06081901 0.008313654 0.0549207 0.06943917 0.08798096 0.08540334
-0.066336185 0.09141114 -0.120016105 -0.04918925 0.010189064 0.10664658 -0.073299736 -0.058498945
0.11822523 0.1260415 -0.1370261 -0.067504756 -0.055402957 -0.011010767 0.1242369 0.00899446
-0.06361142 -0.11694618 0.025464445 0.16469322 -0.037912697 -0.115086146 -0.08786451 0.08632855
-0.028508915 0.023340428 0.090329595 0.03818966 -0.016245242 -0.07935849 0.06770548 -0.04871852
00000000: db09 86bb 9260 213d 2e71 60bd 0943 1f3e
00000010: f3db debd 1e4e 2dbd 4fa5 bebc d0fa cbbd
00000020: 7048 aa3d 6c67 3f3d cd54 21bb cfd5 52bd
00000030: 0dff 6e3c f638 bfbd a2c5 ffbd 238e 08be
00000040: 1416 34bd 7a26 04bd 764f 833d 6e48 f13d
00000050: ffd3 893c 235b b239 263d 893d b3d9 c53d
00000060: e6cd 063e 3784 e73c 4bc2 1bbc df51 6fbc
00000070: da02 653c dac5 64bd dd96 ddbd c85a f6bd
00000080: 4adc a43c 2bd5 ad3d 8c1b 493d 9019 bcbd
00000090: 7bb7 053e f356 34bd 2b41 a5bd 864f b03d
000000a0: a432 8a3b add5 f2bd 6f9f d0bc b6d4 2b3d
000000b0: 903b 38bd 7dd6 8ebd 9c1c aabd 913d 153e
000000c0: 37e3 e33d 2d39 de3d be75 623d 5c56 a13d
000000d0: 6c9e 903d 9404 4e3d a346 a3bc 9edd 5d3c
000000e0: 1d63 1cbd d999 67bd 2f76 b73b 3813 503c
000000f0: 0a31 07be 1d66 46bc 8379 24be f854 a1bd
00000100: 7c03 a73d e6d7 17bb f20e e53d f7dd c03d
00000110: cd9f 4d3d 4fac 773d cbac debd 7ae4 013e
00000120: 3140 4ebd fbbd 063e f6aa d63d 5243 17be
00000130: 003f fcbd 9f08 33bd 1234 48bd 4601 f3bd
00000140: 407c 8b3d 9d60 8b3c 1fef 79bd 5d78 56bd
00000150: 9dce 583d 4d44 543c 3a88 033e 3e6f 4a3a
00000160: 118d c8bd 7ada 5a3c 4f21 cebc 4563 da3d
00000170: 76cf 4e3d e79c 663d 08f0 0f3e 83ce a43d
00000180: 17f9 dcbc fd17 8dbd 46c6 1a3e 441e abbd
00000190: 2c6d b6bd f737 4e3d 5c19 29bc 4e3a 943d
000001a0: b972 d73d 37cd 13be a6bf 913d 3ea7 d0bd
000001b0: 0b57 01bd cab3 343c 1177 063e 31b7 65bd
000001c0: f3a4 62bd 65fb aa3d 91eb 9c3d 043a 6f3d
000001d0: cbe4 f43d c955 d9bd bad6 fcbc 0d62 f03d
000001e0: d5b8 edbd 9e36 1c3e b00d 1e3e 8cf3 513c
000001f0: 9d87 dc3d aeda 983d 86d2 8d3d 24e8 db3d
00000200: 9c08 073e 8bf6 bdbb 201c 7a3d 3cb4 c23d
00000210: ae0b 05bd ad72 923b cdc4 05be 1bd9 1c3e
00000220: 1321 09bd 1c70 34bd e019 923d 5b43 a73d
00000230: 9587 753d 30ed 7ebd e674 c0bc d27a f43d
00000240: 8ed1 ba3d a910 1fbe a52c ccbc 3a79 b13d
00000250: da7c 75bd b0bf 3e3d 22f8 60bd 21f4 6abd
00000260: dbb2 483d 3508 f13d b71f 8bbc 72d7 0e3d
00000270: e528 71be 0437 fdbd 20d5 a33c d67e 06bc
00000280: 4536 843d b5bb fb3d a18f 083e 8d75 cdbd
00000290: cae0 7ebe 7b6e bc3d 5d04 d1bd 7201 06bd
000002a0: 3ab2 783c 1f1a 91bd 263f ecbc c0df a6bd
000002b0: 26b2 96bd 5504 9ebd e0ba 3f3d 78f4 2bbd
000002c0: 4cdf 68bd 6479 9f3d a3f0 d3bc 9030 73bd
000002d0: 2e33 e93d 0dd3 3fbd de06 ecbd 5a19 a7bd
000002e0: 8326 cbbd c54b af3d b2f5 e3bc 67dd 633d
000002f0: 5771 1abd 6bba 163e 8f54 babd e742 233d
00000300: 7245 ebbd cde9 f63d 547d 3ebd bdb2 f93c
00000310: 3475 eb3d 6ae9 b13d 87cb 9e3c 5314 43bd
00000320: a140 123e 3f8d df3d 03f6 203e e591 ecbd
00000330: bdd0 003e cfa8 42bd 2419 b03d aaec 29be
00000340: 112e 933d 8faa c4bc 071a f43d e8ab 22bd
00000350: 3e32 d2bd 3368 13be 6041 623d beac 0cbe
00000360: d5a5 773d 6e6e 16be 5b1d 79bd fe35 083c
00000370: 87f4 603d 2036 8e3d 5d2f b43d f2e7 ae3d
00000380: 44db 87bd c435 bb3d 01cb f5bd ab7a 49bd
00000390: 08f0 263c 8669 da3d 2c1e 96bd 979c 6fbd
000003a0: 1220 f23d 0611 013e 9250 0cbe ef3f 8abd
000003b0: 36ee 62bd 8166 34bc ea6f fe3d 805d 133c
000003c0: b446 82bd 7b81 efbd d09a d03c 57a5 283e
000003d0: 584a 1bbd 49b2 ebbd 4ff2 b3bd 06cd b03d
000003e0: 878b e9bc 6d34 bf3c b9fe b83d c36c 1c3d
000003f0: be14 85bc b486 a2bd 2ca9 8a3d 128d 47bd

rnn_cell.W_hh.bias f4 [50]
0.073757485 -0.086513944 -0.11229357 0.13590474 -0.032966856 -0.044581927 0.025943512 0.024101095
0.017405456 -0.055186354 -0.029282115 0.06838586 0.051607236 -0.070405684 -0.004840425 0.13627695
0.13034774 0.06064957 0.032956723 -0.09835077 0.08517968 -0.0762241 0.14544341 0.09227176
-0.050625894 -0.15647173 0.05578132 0.08697685 0.10247689 -0.1426739 0.23247346 -0.07436906
-0.07566217 0.088971935 -0.059989862 -0.14212242 -0.08307526 0.08303458 -0.12974663 -0.009134866
-0.12371703 -0.037553906 0.0695787 -0.085067056 -0.117494024 -0.056339636 -0.054471727 -0.030947689
0.054203745 -0.09825138
00000000: 2a0e 973d 392e b1bd 2cfa e5bd 9d2a 0b3e
00000010: 4108 07bd 8a9b 36bd 7d87 d43c a96f c53c
00000020: e395 8e3c 160b 62bd 0ce1 efbc e30d 8c3d
00000030: 1c62 533d db30 90bd 6e9c 9ebb 2f8c 0b3e
00000040: e179 053e af6b 783d a1fd 063d 216c c9bd
00000050: af72 ae3d 621b 9cbd 1eef 143e faf8 bc3d
00000060: 195d 4fbd 203a 20be f47a 643d eb20 b23d
00000070: 67df d13d 1b19 12be 860d 6e3e ce4e 98bd
00000080: c5f4 9abd eb36 b63d eeb7 75bd 8a88 11be
00000090: 5d23 aabd 090e aa3d 4ddc 04be 68aa 15bc
000000a0: 5b5f fdbd 20d2 19bd 477f 8e3d a337 aebd
000000b0: b5a0 f0bd 64c4 66bd bf1d 5fbd 0286 fdbc
000000c0: bf04 5e3d 0538 c9bd

rnn_cell.fc.weight f4 [1, 50]
-0.12606056 0.15190163 0.10101241 -0.041347772 -0.055312723 -0.010821406 0.07554016 -0.11268577
-0.0062748725 0.13418998 0.081911206 0.05826017 0.07325422 -0.071595624 0.042760678 -0.016069056
-0.0048990063 -0.034641784 0.11608835 0.12136019 -0.08618596 -0.11024522 -0.046285912 -0.14523266
-0.008088922 0.05739807 0.029496929 -0.14103642 -0.16713117 0.14752847 -0.025231315 0.090323724
-0.11683687 0.09490218 -0.10722122 -0.02457359 -0.033150014 -0.13628477 0.07380078 -0.079700135
0.08153928 0.049344394 0.09780013 -0.05663526 -0.004751233 0.057712782 0.094709046 0.0039723287
0.111868024 -0.08465733
00000000: 0516 01be 1a8c 1b3e 98df ce3d 485c 29bd
00000010: 988f 62bd 444c 31bc cdb4 9a3d ccc7 e6bd
00000020: 729d cdbb 1969 093e 10c1 a73d 37a2 6e3d
00000030: 4f06 963d baa0 92bd d225 2f3d 41a3 83bc
00000040: d887 a0bb 8be4 0dbd bbbf ed3d b18b f83d
00000050: 4482 b0bd 3fc8 e1bd 4c96 3dbd dfb7 14be
00000060: 6687 04bc 3d1a 6b3d 8ba3 f13c da6b 10be
00000070: 6f24 2bbe b411 173e e7b1 cebc a5fb b83d
00000080: 2b48 efbd 135c c23d cd96 dbbd 8e4e c9bc
00000090: 4fc8 07bd 3c8e 0bbe dd24 973d d339 a3bd
000000a0: 11fe a63d 591d 4a3d 6f4b c83d 60fa 67bd
000000b0: 3bb0 9bbb 3d64 6c3d d1f6 c13d 4f2a 823b
000000c0: 101b e53d d260 adbd
