Forecasting-Battery-Capacity-for-Second-Life-Applications-Using-PI-RNN-main/saved_models/pi_rnn_s3_mc_dropout.pt (torch, 15507 bytes, 6 tensors)

rnn_cell.pbm_weight f4 [1, 50]
000000 a9 ad c9 be 9f a0 19 40 99 c0 4b 3f 73 46 f0 be
       -0.39390305 2.4004285 0.79590756 -0.46928748
000010 8c fb 14 3f f2 20 1b 3f be 9d 0e bf bf 23 d9 be
       0.5819633 0.60597146 -0.55709445 -0.42410085
000020 d6 13 35 bd 43 87 37 bf c0 34 dc bf 99 79 3b bf
       -0.04420837 -0.7169077 -1.7203598 -0.7323242
000030 02 be 23 bf 3d 7c 67 3f b7 1a d3 bf a2 c0 dd bd
       -0.63961804 0.9042395 -1.6492528 -0.108277574
000040 65 f1 82 bf 6a 1b f2 be 1a a8 49 c0 c4 e8 14 40
       -1.0229918 -0.4728654 -3.150885 2.326707
000050 6d 92 0b 3f 55 2e 1a 3f 1e 8d 53 bf dc 2e 40 3d
       0.54520303 0.6022695 -0.826372 0.04691969
000060 ca de 98 3e 21 9c 76 bf 7c 39 c1 bc d0 fb d0 3d
       0.29857475 -0.96331984 -0.023586981 0.102042794
000070 81 57 83 3d f8 7f d4 bc 1f 0c dd 3e 15 f4 97 be
       0.064131744 -0.025939927 0.4317331 -0.29678407
000080 da 9b 34 3e c2 9a cc bf 1e a8 99 3f 73 79 4c 3f
       0.17637578 -1.5984728 1.200443 0.79872817
000090 9a f3 bc 3e 94 2b 59 3f 5b 8e 19 3f ae c9 39 be
       0.36904603 0.8483212 0.5998284 -0.18143341
0000a0 cb 69 3c 3f 32 69 0f 3c 39 3d 3b bf 6c c2 68 3f
       0.7359893 0.008753108 -0.73140293 0.90921664
0000b0 62 b7 02 40 b5 54 26 bf dd a3 4c bf 86 02 69 bd
       2.0424428 -0.64973 -0.79937536 -0.056887172
0000c0 dd dd 67 3e 61 c4 c1 3e
       0.22643228 0.37845138

rnn_cell.W_ih.weight f4 [50, 8]
000000 b5 ad ab bd ef 73 90 3e a9 e9 5a be 3c 7f 2f 3e
       -0.08382741 0.2821345 -0.21378197 0.1713838
000010 60 99 94 3e fc 3e 9f ba 21 be 6e 3d db 61 78 be
       0.29023266 -0.0012149508 0.05828679 -0.24256079
000020 7e 61 12 be 63 2e 91 be 52 87 69 3e 5c 3a db bd
       -0.14295003 -0.28355703 0.22805527 -0.107044905
000030 32 cd 58 3e 18 23 8f 3e 0f 58 22 3e cf e5 13 3b
       0.21172026 0.27956462 0.15853904 0.0022567397
000040 27 4d 85 3e 6b 05 84 be 47 43 0f 3e 32 f4 a6 be
       0.26035425 -0.25785384 0.13990508 -0.3260818
000050 bd d4 75 be 4a 31 7e be af b4 6f 3e 9b 07 79 3e
       -0.24006934 -0.2482349 0.23408769 0.24319308
000060 49 fc ae bd a5 06 ab be 5f eb 6b bd 79 ca 96 be
       -0.08544213 -0.33403507 -0.057597514 -0.2945135
000070 ba d7 93 be c9 2b 9e 3e 92 aa d6 bb b3 ce 82 3e
       -0.28875524 0.3089278 -0.0065510953 0.25548324
000080 0c 9a 56 be fc 59 80 3d 32 14 a9 bc a3 ec a0 be
       -0.20957202 0.06267163 -0.020639513 -0.3143054
000090 ff 6f 8f 3e c2 59 01 be cf d5 55 3e 38 c5 3b 3d
       0.28015134 -0.12631896 0.20882343 0.04584238
0000a0 7f 9d 5f 3d 87 cb df bd 8b 86 a4 3e 2f 4a 6e 3e
       0.05459356 -0.10927492 0.32133898 0.23270486
0000b0 29 2d 55 bd 91 bc 89 be 11 3a 9e be 94 40 9a 3e
       -0.05204502 -0.26901677 -0.30903676 0.30127394
0000c0 60 de dd bd 79 62 2f be 85 6c 80 be 22 5a 60 3e
       -0.1083343 -0.17127408 -0.25082794 0.21909383
0000d0 29 e8 04 be 52 a5 60 be e6 fb 51 3e ad af 36 3c
       -0.12979187 -0.21938065 0.20506248 0.011150283
0000e0 9a b2 30 3b 65 a5 2d bd 94 25 7f be 35 07 6c 3d
       0.0026961924 -0.04239406 -0.24916679 0.05762406
0000f0 bf 91 91 be 03 91 b2 3d b5 d0 39 3e 8d fe 66 3e
       -0.28431508 0.08719065 0.18146022 0.22558041
000100 cd 5d 1d 3e 56 fc 02 be 3d 2c 25 3e e1 49 16 3e
       0.15367813 -0.12791571 0.16130157 0.1467662
000110 31 95 83 bd d2 4c a1 bc 3f f9 92 be 38 f9 8a 3b
       -0.064249404 -0.019689951 -0.28705785 0.004241135
000120 aa 56 14 3b 4c 2a 5f 3e cb e7 ac 3e d0 28 b7 be
       0.0022634664 0.21793479 0.33770594 -0.35773325
000130 ba 63 90 be d8 c1 22 bd ef 0f 4b bd b4 d4 4b 3e
       -0.28201085 -0.039735645 -0.049575742 0.19905359
000140 7f c0 96 bd 10 58 3e be 66 ce 3b 3d fe a3 96 ba
       -0.073609345 -0.1858828 0.045851134 -0.0011492965
000150 bf 8c 28 be 90 8c 26 3e 90 53 81 3e f9 7f 20 be
       -0.1645994 0.16264558 0.25259066 -0.15673818
000160 dc 1b ab 3e 46 bb 9e be e3 6e 0b be e6 ad 38 3e
       0.33419693 -0.31002253 -0.13616519 0.18035087
000170 f2 85 9b 3e 6a 33 95 be 6a 61 62 be 5a 0f 50 be
       0.3037563 -0.29140788 -0.22107473 -0.20318356
000180 9d fd 98 3d d0 eb 00 be e3 33 96 3e c8 62 e6 bd
       0.07470248 -0.12589955 0.2933646 -0.1124931
000190 7f f1 78 bd 05 94 ee 3d b6 83 a0 3e e8 a9 91 be
       -0.060777184 0.11649326 0.31350487 -0.2844994
0001a0 2d 1c 19 bd 8c 41 96 be 9a 15 86 3d b7 76 1a be
       -0.037380386 -0.29346883 0.06547089 -0.15084349
0001b0 ba 1c 59 3e e6 a6 4d be d2 50 62 3e 58 7a 94 3e
       0.21202365 -0.20083198 0.22101143 0.2899959
0001c0 94 bf af be 0f 80 95 be 12 15 6b be 4b 65 9c 3e
       -0.3432585 -0.29199263 -0.22957256 0.3054603
0001d0 67 c1 fe bc 2e 8d 89 3e cc cb 2f 3e e0 a8 a7 be
       -0.03109808 0.26865524 0.17167586 -0.3274603
0001e0 74 3e 8e 3e 04 57 6e 3e d2 5e 30 3d 08 28 97 be
       0.27782023 0.23275381 0.043059178 -0.2952273
0001f0 37 8a 34 be e1 0d 41 be 77 bb a8 3e b3 67 6a be
       -0.1763085 -0.1885295 0.32955524 -0.2289112
000200 80 19 09 bd 32 59 1d 3d 1f 54 0f 3e 41 70 9c 3c
       -0.033471584 0.03841514 0.13996933 0.019096496
000210 69 66 6f 3e 52 88 31 be 52 da ac 3d 09 87 b9 3d
       0.2337891 -0.17337158 0.08440079 0.09058959
000220 a6 ea 95 3e 50 71 b0 bc 5a 81 20 be 0d c6 ff 3d
       0.29280585 -0.021538407 -0.15674344 0.12488947
000230 28 67 7d 3e bd 92 6e 3e 60 24 95 be 2f bb 4b be
       0.24746382 0.23298164 -0.29129314 -0.19895624
000240 53 3a 3e 3e f2 7d 47 be a2 1b 0d be aa 8f b3 3e
       0.18576936 -0.19481638 -0.13780072 0.35070544
000250 bd b9 20 be 4b f5 44 3e 0b b3 1a be 6b d7 f9 3b
       -0.15695854 0.19234197 -0.15107362 0.007624557
000260 9c c7 76 3e 5d 4d 94 be 33 a7 72 be 58 15 08 3e
       0.24099582 -0.28965273 -0.23696594 0.13289392
000270 86 3a 9d be 56 fe af 3e a6 b4 98 3e c0 4e a2 be
       -0.30708712 0.3437373 0.29825324 -0.31700706
000280 0d 15 3b be d7 da ea 3d 38 e4 72 3e 6e 60 64 bd
       -0.18269749 0.11467522 0.23719871 -0.055756025
000290 e8 e9 15 3e 1a 7a 6a be 8f c8 93 3e 91 22 79 3e
       0.1464001 -0.2289814 0.28863952 0.24329592
0002a0 cc a8 77 3e 65 35 48 be 3c c3 8b 3d 66 9c 67 be
       0.24185485 -0.19551618 0.068243474 -0.22618255
0002b0 99 36 45 be 30 54 53 be c3 ee fb 3d 5f e8 c0 bd
       -0.19259109 -0.20637584 0.123013996 -0.09419321
0002c0 83 7c 53 be b5 d1 8c bd ec 92 71 3e f2 92 38 bd
       -0.20652966 -0.06875936 0.23591202 -0.045062013
0002d0 ce b1 56 be 3d 50 72 3e 67 4a 9a be d3 13 01 be
       -0.20966265 0.23663421 -0.3013489 -0.12605219
0002e0 09 2d d6 bd 29 36 29 be 88 f9 88 3e fb f0 9b be
       -0.104578085 -0.16524567 0.26752877 -0.3045729
0002f0 a2 3f 3a be 93 bf e8 3d 74 d2 13 3e 9f 0d d8 bd
       -0.18188336 0.11364665 0.1443575 -0.10549473
000300 08 d1 80 bd 04 08 22 be 14 7a 09 3e 0c 16 1a 3e
       -0.062898695 -0.1582337 0.13425475 0.15047473
000310 0d 77 9c be b2 de a5 be 9a 12 7d be df a4 aa 3e
       -0.3055958 -0.32396466 -0.24714127 0.33328912
000320 ed ae a8 3e f7 e5 0e 3e f7 1c 34 be e2 d9 99 be
       0.32945958 0.13954912 -0.17589174 -0.30049044
000330 88 f3 8c be 85 73 49 be 19 07 3b 3e f7 a2 38 3e
       -0.2752955 -0.19672973 0.18264426 0.18030916
000340 2d 66 9c be fb de 95 be 84 de 9d be 0a 62 07 3e
       -0.30546704 -0.29271683 -0.30833828 0.13220993
000350 71 30 44 bd e8 ed 16 3d 96 c8 83 3c 6a d7 73 3e
       -0.04789776 0.03684798 0.016086858 0.23812643
000360 c3 18 94 be bc 7b 7a 3d fb f8 84 3e 7c ca 56 3d
       -0.28925142 0.06115316 0.25971207 0.052439198
000370 b7 0c 5d bc 8c d8 92 3e 3e 36 04 be e6 bc 03 be
       -0.013491801 0.28680837 -0.12911317 -0.12865028
000380 99 d1 78 be 42 8d 7a be 80 0a 3b 3e de cd 48 bd
       -0.24298705 -0.24467948 0.18265724 -0.049024455
000390 ef 73 11 bd 7d 5b 38 be bd d9 64 be 5e 5d 0c be
       -0.035510954 -0.1800365 -0.22348686 -0.13707492
0003a0 00 4c 9d 3e 30 0b 8d be 1f 1d cb 3d eb 41 e6 3d
       0.30722046 -0.27547598 0.09917664 0.112430416
0003b0 80 52 a9 bd 74 89 14 bd d7 bb 5a be 5c a2 37 bc
       -0.08267689 -0.036263898 -0.21360718 -0.011208143
0003c0 9d c7 37 3e 19 6e ee bd 56 ce 15 be ce e3 ae bc
       0.1794724 -0.11642093 -0.14629492 -0.02134886
0003d0 5f e3 84 be a8 13 77 3e 24 3e 96 be 62 dd 20 be
       -0.2595472 0.24128592 -0.29344285 -0.15709451
0003e0 79 bf b5 3d 07 75 42 be 42 ed 07 be 25 de 0d 3e
       0.08874411 -0.18989955 -0.132741 0.13854273
0003f0 ab e2 8c 3e 44 d3 3a bd 7e 42 8f 3e 06 34 ce 3d
       0.27516684 -0.045611635 0.27980417 0.100685164

rnn_cell.W_ih.bias f4 [50]
000000 00 0c 0b bc 14 c2 8f be 0b 0c 00 be c8 1f 2b be
       -0.008486748 -0.28077757 -0.12504594 -0.16711342
000010 81 cf 91 be 71 72 8d 3e 34 eb 4c 3e 16 d9 09 be
       -0.28478625 0.27626374 0.20011598 -0.13461718
000020 fe a8 69 3e 17 52 71 bd 1d 0e 8a 3c ce ad 95 3e
       0.22818372 -0.058916178 0.016852433 0.29234165
000030 04 c2 84 be 25 a0 ef bd c1 05 2c 3e 61 a3 ad 3b
       -0.25929272 -0.11700467 0.1679907 0.0052990173
000040 8f 32 45 be 58 61 a2 bd f4 97 89 be 6e 0c a8 be
       -0.19257568 -0.07928723 -0.26873744 -0.32821983
000050 0c 6e 6b be 03 9f 8b 3e 4b 94 07 3c 83 f3 2f 3d
       -0.22991198 0.27269754 0.008275102 0.04295684
000060 cc af 9b be 58 55 ab 3e b2 92 55 3e 16 f2 93 3e
       -0.3040756 0.3346355 0.20856741 0.28895634
000070 d4 7e 6c 3e 76 33 5f be 65 1d 2d 3e c4 20 29 bc
       0.23095256 -0.21796975 0.16905744 -0.010322753
000080 ff 16 c1 bd 38 e1 b3 3e 38 3f 34 be 34 bb 29 be
       -0.09428214 0.35132766 -0.17602241 -0.16575319
000090 4e 7c 1e bd b4 50 7b 3e 55 a0 94 be e2 38 96 bc
       -0.038692765 0.24542505 -0.29028574 -0.01833767
0000a0 a4 1f 83 3d 2d d0 89 3e 69 86 3a be 39 86 77 3e
       0.06402519 0.26916638 -0.18215336 0.24172296
0000b0 ff bb 82 3e da fc 8b be 1d 91 a4 3e 30 59 82 be
       0.25534055 -0.27341348 0.32141963 -0.2545867
0000c0 2c f7 fd 3d 93 c1 c8 3d
       0.1240066 0.09802546

rnn_cell.W_hh.weight f4 [50, 50]
000000 66 25 0f bd 5a da ec 3c de 36 9a bd 07 70 0c 3e
       -0.034947775 0.028912712 -0.07529996 0.1371461
000010 54 46 0b be 21 bc 53 bc 14 e3 4d bd 97 21 9d bd
       -0.13601047 -0.012923271 -0.050265387 -0.076724224
000020 ea d9 e9 3d d6 09 92 3d 69 1b 13 bd df f0 86 3c
       0.11418517 0.07130782 -0.035914812 0.016472278
000030 77 5c 58 bc 98 52 4a bd 17 33 da bd 96 f6 0b be
       -0.013205639 -0.049395174 -0.10654276 -0.13668284
000040 a9 dc 44 bc aa b2 0b bd 25 1b f6 3b 26 82 c0 3d
       -0.0120155 -0.034105934 0.00751056 0.09399824
000050 c2 38 69 3d d5 14 04 bd ff 47 56 3d 44 84 91 3d
       0.056938894 -0.03224643 0.052314755 0.07105306
000060 b4 0d f9 3d 2a cb 52 3c 39 92 46 3d 30 d5 5b 3b
       0.12160817 0.012865821 0.048479293 0.0033543818
000070 c1 fc 74 3d b0 70 a6 bd e7 f4 9b bd 3c f8 b3 bd
       0.059811357 -0.08126962 -0.07615071 -0.08787581
000080 26 6c a2 bb 79 ba 5a 3d e9 77 87 3d 6a 7b 4b bd
       -0.00495674 0.05340049 0.06614668 -0.049678244
000090 ab 52 fa 3d a3 15 e1 bd 16 15 c0 bd 99 b5 71 3d
       0.12222799 -0.10990455 -0.09379022 0.059011076
0000a0 4e 7d 05 3d 0a 20 cd bd b3 cf 99 3b 45 9d f9 3c
       0.032590203 -0.100158766 0.004693949 0.0304705
0000b0 66 13 3a bc 37 66 b4 bc 72 47 90 bd 92 bb fe 3d
       -0.011357164 -0.022021396 -0.07044877 0.1243812
0000c0 f4 81 16 3e 82 1a b6 3d d1 93 3d 3d 06 b1 91 3d
       0.1469801 0.08891775 0.046283547 0.07113843
0000d0 17 8a 5d 3d a6 d0 a4 3c ad a7 15 bd 49 c6 e6 3c
       0.05408677 0.020119023 -0.03653686 0.028170722
0000e0 19 8a 2f bd 7d 77 30 bd cb a9 8a 3c d4 f7 02 3d
       -0.04285631 -0.043082703 0.016926667 0.03197463
0000f0 f0 55 16 be 64 13 a9 3b 3d 9a 1c be 5c 14 9b bd
       -0.1468122 0.0051597822 -0.15293212 -0.075722426
000100 6c 8f ab 3d 3d a3 0b 3c 72 47 f5 3d 17 97 90 3d
       0.08376965 0.008522806 0.11976518 0.07060068
000110 70 92 20 3d 35 78 59 3d 0a 1a cb bd ed c4 de 3d
       0.039202154 0.053093154 -0.09917076 0.10877404
000120 00 bd 84 bd 03 3e f3 3d 94 f5 ca 3d b1 06 08 be
       -0.064813614 0.11877062 0.099101216 -0.13283803
000130 85 66 fa bd 92 16 31 bd b1 64 8f bd 49 a9 0f be
       -0.12226585 -0.043234415 -0.07001627 -0.14029421
000140 ad 40 79 3d 82 95 e4 3c a5 60 a1 bd d2 b0 4a bd
       0.060852695 0.027903322 -0.078797616 -0.049485035
000150 b9 2f 7f 3d 61 92 d0 3c 4e 5a 0c 3e 49 c5 6e bc
       0.06230137 0.025460424 0.13706324 -0.014573404
000160 f2 8a e3 bd 1b a4 6d 3b 3f df 44 bb a4 be dc 3d
       -0.11110486 0.0036261145 -0.0030040292 0.10778549
000170 86 ad 84 3d 71 a2 17 3d e5 63 16 3e 92 ad c2 3d
       0.064784095 0.03702015 0.14686544 0.09505762
000180 27 2d 83 bc 7a 86 a2 bd dc d2 18 3e 43 0e b8 bd
       -0.016012741 -0.079358056 0.14924186 -0.08987095
000190 f1 e2 ce bd 90 72 2d 3d d5 05 12 bd f8 9d cc 3c
       -0.101018794 0.042345583 -0.035650093 0.02497767
0001a0 6f 3f ab 3d ee b1 02 be cc 15 6c 3d c5 c9 a6 bd
       0.083617084 -0.12763187 0.057637975 -0.08143953
0001b0 09 fc 89 bc a8 af f0 3c db f9 e8 3d 50 85 96 bc
       -0.016843813 0.029380634 0.11375781 -0.018374115
0001c0 f0 2f 28 bd 02 20 ad 3d 44 ba b6 3d 9b 41 b2 3d
       -0.04106134 0.08453371 0.08922246 0.087039195
0001d0 f8 2a 0b 3e 59 3e d6 bd b8 63 54 bd 7f 23 d2 3d
       0.1359061 -0.104611106 -0.05185291 0.102606766
0001e0 72 0e cd bd ef d8 03 3e 78 49 05 3e 8b a9 d6 b9
       -0.10012521 0.12875722 0.13016307 -0.0004094358
0001f0 da f7 ad 3d ff d6 bd 3d 1d 72 8a 3d ed 75 e7 3d
       0.084945396 0.09269523 0.06760047 0.113017894
000200 c2 ef f1 3d aa e4 0a bd 9f 30 97 3d 20 23 e4 3d
       0.11813308 -0.033909477 0.073823206 0.11139512
000210 33 28 5a bd 25 1f 8c 3c 2e a4 fb bd ad 16 1f 3e
       -0.053260993 0.017104695 -0.12287174 0.15535994
000220 bc 3a 19 bd cf c9 a1 bd ba 55 63 3d 3f 8e 87 3d
       -0.03740953 -0.0789982 0.055501677 0.06618928
000230 a5 c7 a5 3d c8 1b 53 bd 53 5b e7 bb 33 92 ae 3d
       0.0809472 -0.051540166 -0.0070604472 0.08523979
000240 71 e8 c9 3d ec e2 01 be 46 33 ae bb 7c e3 93 3d
       0.09858788 -0.1268422 -0.005316171 0.072211236
000250 ed bc 83 bd 07 a0 f4 3c f1 83 71 bd f2 70 4e bd
       -0.06432519 0.029861463 -0.05896372 -0.05040068
000260 24 70 3b 3d d4 0d 96 3d 1e 25 a8 bc da 23 6a 3d
       0.045761243 0.07326856 -0.020525511 0.057163097
000270 67 52 e2 bd 05 7f da bd 91 ce e7 3c 77 8e 0c 3d
       -0.11050873 -0.10668758 0.02829674 0.034315553
000280 d4 49 0f 3d 61 4a 08 3e 81 9e cd 3d 3e 5b 47 bd
       0.034982517 0.13309623 0.10039998 -0.048671
000290 18 2f 0c be 09 b7 92 3d 0b 0a cd bd b2 63 aa bd
       -0.1368984 0.071638174 -0.10011681 -0.083197966
0002a0 5d 45 2a bd 03 11 a4 bd c2 ec 2b 3d 93 5d ec bd
       -0.041570056 -0.08011057 0.041973837 -0.11541285
0002b0 b4 95 86 bd 28 37 d9 bd 7e d6 97 3d 84 26 24 bd
       -0.06571522 -0.10606223 0.07413958 -0.040075794
0002c0 7f 55 71 3d 80 b3 c6 3d 4e ae a8 3d 91 63 a2 bd
       0.058919426 0.09702206 0.08236371 -0.07929147
0002d0 1b 7a c1 3d ce 11 25 bd a5 94 12 be c2 03 f8 bd
       0.09447118 -0.040300183 -0.14314516 -0.12110092
0002e0 97 70 f7 bd 2c f8 3e 3e 85 c4 38 bd 76 a2 cf bd
       -0.12082022 0.18649358 -0.04510929 -0.10138409
0002f0 4d 47 0d bd 7a 5d e5 3d 9a 51 66 bd 27 ed eb 3c
       -0.034491826 0.1119947 -0.056230165 0.028799606
000300 be 95 9a bd 4a b0 fc 3d 61 fc 31 bd cf 50 37 3d
       -0.07548092 0.12338312 -0.043453578 0.0447548
000310 de 54 d2 3d 53 e2 d3 3d 68 53 65 3d 23 36 ab bd
       0.102700934 0.10345902 0.055987746 -0.08359935
000320 42 24 9f 3d ba 01 be 3d 4f 29 ea 3d 32 39 ec bd
       0.077705875 0.09277673 0.1143366 -0.11534347
000330 3e 80 a0 3d 45 9e a7 bb b8 cf 32 3d 86 a9 fb bd
       0.0783696 -0.0051153027 0.043655127 -0.122881934
000340 70 70 d8 3d a5 da 84 3c 19 4e 76 3d 59 9c 7d 3b
       0.10568321 0.01621754 0.060133073 0.0038697927
000350 b4 fd ae bd d4 34 92 bd 34 a5 8a 3d 94 cb cf bd
       -0.08544484 -0.071389824 0.06769791 -0.10146251
000360 2c ff be 3d 85 9a 0f be 97 17 fc bd df e0 00 bd
       0.09326014 -0.14023788 -0.12309187 -0.031464454
000370 c0 da d1 3d 69 e7 32 3c 11 11 68 3d 48 93 4f 3d
       0.102468014 0.01091943 0.0566569 0.050677568
000380 42 03 fa bd 85 3d bd 3d 62 79 98 bd b4 1f 51 bc
       -0.12207653 0.092402495 -0.07445027 -0.012763906
000390 00 0b dc 3d 9a 16 6c 3d 40 3a 27 bc 7b aa c4 bc
       0.107442856 0.057638742 -0.010206759 -0.024007073
0003a0 22 38 5e 3d ef c1 94 3d 1d dc cc bd 5b 7f cf bc
       0.05425275 0.072635524 -0.10002921 -0.025329283
0003b0 da bc 9a bd d0 8a 42 bd 75 e0 bd 3d 1d 9d 23 bc
       -0.07555552 -0.047495663 0.092713274 -0.009986189
0003c0 3b 92 e6 bc d6 f3 bd bd 0b 7c 87 3d 7c dc fe 3d
       -0.0281459 -0.09275024 0.06615456 0.12444398
0003d0 29 99 76 3c 91 25 08 bc 1c 5c 37 bd fc 4d b8 3c
       0.015051165 -0.008309738 -0.044765577 0.022498123
0003e0 fe ba fc bc 5f e4 61 bc b9 bb c6 3d ab ac 1b 3d
       -0.030850884 -0.013787358 0.09703774 0.038006466
0003f0 46 18 44 3b 1b 3c 82 bd 0d 14 b8 3d e8 7d 92 bd
       0.0029921695 -0.063591205 0.089881994 -0.07152921

rnn_cell.W_hh.bias f4 [50]
000000 e2 29 bf 3d 79 8b 9b bd a7 2d c3 bd 0c 09 05 3e
       0.093341604 -0.07594962 -0.09530192 0.12991732
000010 df 3f cf bc a3 96 84 bd bc 33 06 3d 28 6d 85 3c
       -0.02529901 -0.06474044 0.03276418 0.016287401
000020 ce b8 9b 3b 66 8e 81 bd 33 e8 a1 bc a2 fc 3f 3d
       0.004752255 -0.063259885 -0.019764042 0.04687179
000030 34 c6 4e 3d 26 48 d1 bd dd 5a 5b bc cd a4 ef 3d
       0.05048199 -0.10218839 -0.013388363 0.11701355
000040 0c f0 06 3e 39 fe b0 3c a1 26 66 3d af bc a1 bd
       0.13177508 0.021605598 0.056189183 -0.07897317
000050 42 d9 b7 3d 0b 90 8b bd c3 e8 17 3e 4b 93 d9 3d
       0.089769855 -0.068145834 0.14834885 0.10623797
000060 97 e0 0c bd 0f 6f ab bd fe 61 0e 3d c6 42 ae 3d
       -0.034393873 -0.08370792 0.03476142 0.0850883
000070 06 65 df 3d 12 73 04 be f3 a7 e4 3d f7 38 aa bd
       0.109079406 -0.12934521 0.11164846 -0.083116464
000080 a6 9c 93 bd 54 15 d1 3d 7e 6f a3 bd 6e ce 05 be
       -0.07207613 0.10209146 -0.0798025 -0.13067028
000090 70 7b d8 bd d3 61 14 3e ea e8 da bd a6 18 65 bb
       -0.10570419 0.14490442 -0.10688956 -0.0034957319
0000a0 a3 77 08 be da 34 a1 bd c3 c0 5a 3d 40 24 c2 bd
       -0.13326888 -0.07871409 0.05340649 -0.094795704
0000b0 d9 bb 0d be f1 1b a9 bd 66 91 99 bd 50 de bb bc
       -0.1384119 -0.082572825 -0.07498436 -0.022933155
0000c0 3b 13 46 3d bf c1 dc bd
       0.048358183 -0.10779142

rnn_cell.fc.weight f4 [1, 50]
000000 7f a7 c6 3d 8e 74 ad 3d 5b fd 03 3e ca 33 f6 3b
       0.09699916 0.08469497 0.12889616 0.007513498
000010 0a 58 be 3d 60 30 14 bd bb a1 96 3d 6c 49 6e 3d
       0.09294136 -0.036178946 0.073550664 0.05817549
000020 5e 59 da bd f8 88 ff bd 48 bf e0 3d 00 51 41 bd
       -0.10661577 -0.124772966 0.10973984 -0.04719639
000030 b3 10 f1 bc ea 35 2a 3d 7e 87 f4 bd 82 85 ad bc
       -0.029426908 0.041555323 -0.119399056 -0.021181826
000040 26 92 7b 3c 3e 2e 26 bd 3b b8 96 3d e9 19 f4 bc
       0.015354669 -0.040571444 0.07359358 -0.029797511
000050 14 02 6a 3d 89 71 67 3d ad f2 02 bd 8c 4f 32 3d
       0.057130888 0.05650476 -0.031969715 0.043532893
000060 dc b1 f4 3c 13 09 db 3b 30 73 20 bd 2f 7d 08 3d
       0.029869966 0.0066844313 -0.03917235 0.03332251
000070 97 2e 9a 3d 84 df 82 3d 59 5d 20 bd a2 6c 38 bd
       0.075284176 0.063902885 -0.039151523 -0.045025475
000080 64 6b 77 3d ea 66 71 3d 51 f2 36 3d 1e 6c 58 3d
       0.06040515 0.058936037 0.044664685 0.052837484
000090 6b 35 fc bd 77 44 46 3d 6f 63 c1 3b b8 c4 93 bd
       -0.12314876 0.048405137 0.005901746 -0.072152555
0000a0 df 0b 1b bd db be 9e 3d 1e 9f cc bd a4 96 4d bd
       -0.037853118 0.077512465 -0.09991287 -0.05019249
0000b0 42 7c dd 3c 2f 86 a4 3d c2 58 d8 bc 7a 87 81 3b
       0.02703679 0.08033406 -0.02640951 0.0039529176
0000c0 60 bf 10 bd e9 fc ef bd
       -0.03533876 -0.11718161
